app/assets/model.tflite (tflite, 130064 bytes, 8 tensors)

sequential_2/conv2d_3/BiasAdd;sequential_2/conv2d_3/Conv2D;conv2d_3/bias f4 [32]
000000 35 77 3c 3c 2a 1c 66 bc 30 58 37 bd ea 16 50 bb
       0.011503031 -0.014044801 -0.044761837 -0.003175194
000010 5a 34 42 3c d8 3f 6d 3d 07 fd a7 bc d3 3a cc 3c
       0.011853302 0.057922214 -0.020506395 0.024930393
000020 1a 81 0d bd 72 78 b5 3c 28 b8 99 bc 7c 6b 0c bd
       -0.03454695 0.02215216 -0.01876457 -0.034282193
000030 b1 3f 62 bc 88 23 27 3d 76 ce 5e bc 36 fd 8f bc
       -0.0138091305 0.04080537 -0.013599029 -0.017576795
000040 e7 29 4c bc 7d 88 f7 bb e1 be 4d 3d 5b 9d 43 3c
       -0.012461162 -0.0075541125 0.050230864 0.011939372
000050 c5 1c a9 bc 2b f2 b5 bc f5 fb d3 3c cd fa b2 3c
       -0.020643601 -0.022210201 0.025876978 0.021848107
000060 bd 9b a7 bb d4 96 34 3d 37 3d 8c bc 5f da 10 3b
       -0.005115001 0.044089153 -0.017119033 0.0022102816
000070 24 85 bc bc ac c5 0a bd 1e 12 e7 bc 96 5e 98 3c
       -0.023012705 -0.03387992 -0.028206881 0.01859979

sequential_2/conv2d_2/BiasAdd;sequential_2/conv2d_2/Conv2D;conv2d_2/bias f4 [16]
000000 be 97 14 3e 39 9d e7 3d bd 77 5f 3c 15 a0 81 bb
       0.1451101 0.11309285 0.013639388 -0.003955851
000010 9f eb 8c 3d cd b7 62 3d bf cb 0a be 12 13 0e 3c
       0.06880879 0.055351067 -0.13554285 0.008671539
000020 a6 8d 03 3d 16 23 22 3d ea 8e f4 3d 7b 2b c7 3c
       0.03211751 0.03958424 0.11941321 0.024312725
000030 38 34 bc bd 1c 4c bf 3d 31 84 bf bc f6 e1 6f 3c
       -0.091896474 0.093406886 -0.023378463 0.014641276

sequential_2/conv2d_3/Conv2D f4 [32, 5, 5, 16]
000000 60 df 48 be b2 14 87 bc 40 ca f7 3b 75 fe 99 bd
       -0.19616461 -0.01648936 0.007561952 -0.07519237
000010 79 55 df bb 3e 26 13 bd 61 27 af bd 58 13 1f be
       -0.006815609 -0.035925142 -0.08552433 -0.15534723
000020 ab 2a a2 bb f4 d1 b7 bd 4b dc c7 3d 70 f7 63 3d
       -0.004948934 -0.08975592 0.097588144 0.055655897
000030 e8 c8 ba bc 11 ed 17 be 69 3e 54 bd a1 0d 29 bd
       -0.022800878 -0.14836527 -0.05181733 -0.041272763
000040 51 5d 06 be 98 b2 d9 bc ff 92 de 3b 73 6a 64 3d
       -0.13121535 -0.026574418 0.0067924256 0.05576558
000050 71 52 75 bc 6d 7b d3 3c 3d a3 04 bc 7f 3b 1b bd
       -0.014973269 0.02581569 -0.00809556 -0.037898537
000060 87 cb 2e 3d db d8 b9 bd 28 f9 03 3d 4f 16 77 bd
       0.042674568 -0.09074565 0.032220036 -0.06032401
000070 de 0c f3 3c 7b d6 87 bd 95 bd 6d 3d dc 8b 8c 3d
       0.029669221 -0.06632706 0.058042128 0.068626136
000080 4c 03 c6 3d 34 ac e8 3c 4a c6 c1 bd 48 f2 5b bd
       0.096685976 0.028402425 -0.09461649 -0.053697854
000090 a3 5d 89 bb 60 35 1a 3d cc ca 05 3d 90 03 dc 3d
       -0.0041920706 0.03764856 0.032664105 0.10742867
0000a0 30 c2 47 bc 04 c1 51 bd 4e b7 aa bd a7 7e dc 3c
       -0.012192294 -0.051209465 -0.08335744 0.026915861
0000b0 76 65 1f 39 70 1e 9f 3b e0 41 55 bd 52 65 83 3d
       0.00015201219 0.0048559234 -0.052064776 0.0641581
0000c0 60 78 40 be ca 57 12 3b 83 14 39 bd 86 af 94 bd
       -0.1879592 0.0022330158 -0.045185577 -0.07260041
0000d0 0d 34 a0 bd 71 03 71 bd c1 53 58 bd 1e c8 ac bc
       -0.07822428 -0.058841173 -0.05281425 -0.021091517
0000e0 66 62 03 3b 76 d7 7e bd 71 26 a7 be d8 34 7a 3c
       0.0020047664 -0.0622172 -0.32646516 0.015271388
0000f0 e9 04 1d 3d be 3d a5 3d 80 72 6d bb 18 ce 79 bd
       0.03833476 0.08068417 -0.0036231577 -0.060987562
000100 3f 29 aa bd 37 bf 7a bb ed 66 44 bd 42 3a 4b 3d
       -0.08308648 -0.0038260946 -0.04794972 0.049616106
000110 95 ba ad 3d e0 30 2c 3d 85 61 46 3d e0 13 c1 bc
       0.08482853 0.0420388 0.048432846 -0.023569047
000120 63 d7 a9 3d b2 81 50 be db 45 31 bd a8 0f ab bd
       0.08293035 -0.20361975 -0.04327951 -0.083525956
000130 0b f4 d1 3c 11 35 d1 bd cd ee 86 3c 5f cd 81 bd
       0.025629064 -0.102152 0.016471291 -0.063379996
000140 88 9f 2a 3e 85 a3 18 3d 46 e1 be bd 61 cd 6e bd
       0.16662419 0.03726532 -0.09320311 -0.058301333
000150 19 7d 7c be e1 45 5c 3c be 2d 62 bb ef ef fa 3d
       -0.24657096 0.013444395 -0.0034512128 0.12252795
000160 cd f9 e2 bd 5d af d1 3d 24 4d 5f bd a1 33 27 3d
       -0.11082802 0.10238526 -0.054516926 0.04082072
000170 cf 42 ed bc 41 27 9e bd 69 3b e5 bc 88 f3 e2 3c
       -0.02896252 -0.07722331 -0.02798243 0.027704015
000180 6f 06 95 bd 6d ea 05 bd 86 df 30 bd 0c f5 ac 3c
       -0.07276618 -0.03269427 -0.04318192 0.021112941
000190 b0 da 87 3d fc d8 30 bd 8d cd e4 3c 9d b0 52 3d
       0.06633508 -0.043175682 0.027930046 0.051437963
0001a0 f8 53 85 bd b1 d2 88 bb 1b 4a 2c bd 03 b7 50 3b
       -0.065101564 -0.004175507 -0.04206286 0.0031847365
0001b0 14 b3 cd 3c 36 3a ae 3d 49 d3 42 bd 2e 16 48 3d
       0.025109805 0.085071966 -0.04756478 0.048849277
0001c0 5c 41 cc 3d f2 95 65 bd 23 b7 99 bd 39 ee 7e bc
       0.09973404 -0.056051202 -0.07505634 -0.015559726
0001d0 26 c2 60 be 05 00 9f 3c 46 fc 3c 3d f5 28 92 3d
       -0.21949062 0.019409189 0.046139024 0.07136718
0001e0 c0 08 3c bd 5b be 20 bc 89 23 af bc 10 e1 a7 bc
       -0.045906782 -0.009811009 -0.02137925 -0.02049306
0001f0 e9 92 94 3d 09 6e 11 bd 91 e7 54 bd 64 46 86 3c
       0.072545834 -0.03550533 -0.05197865 0.016390987
000200 29 93 7b be 6f 0d 5c 3d b9 8d 64 3d 02 41 c1 bc
       -0.24567856 0.05372375 0.05579922 -0.023590568
000210 e7 f1 3b 3e 80 bd 87 bd 90 c6 56 3b 7d 71 6f 3d
       0.18353997 -0.06627941 0.003277216 0.05845784
000220 e5 ce 1e 3d 19 38 8b bd 0e f1 14 bd 76 df 7d 3d
       0.03877153 -0.06797809 -0.0363627 0.061980687
000230 64 01 81 3d e2 27 3f 3e 3c 91 8a 3d ed 91 83 3d
       0.06299093 0.18667558 0.067659825 0.064243175
000240 d5 04 66 3d 49 de 2f bb b8 7b 30 3c 33 71 87 bb
       0.056156952 -0.0026835373 0.010771684 -0.0041333674
000250 41 6c 3e bd 6a b8 ce 39 58 a7 ab bd 3e 4c 97 bc
       -0.046489958 0.0003942878 -0.08381528 -0.018468972
000260 b5 11 c4 3d e3 28 58 3d a9 c0 90 3d 3c 78 c1 bc
       0.0957369 0.052773368 0.07067997 -0.023616903
000270 61 33 7a bd 31 f5 62 3e ac ec 4e bd 5a a3 5d 3d
       -0.061084155 0.22163846 -0.050518677 0.054110862
000280 76 e5 80 3d 13 ea 7d 3c 11 f0 43 bd 26 e8 f4 bb
       0.06293766 0.015497702 -0.047836367 -0.0074739633
000290 c6 5c 0f 3e c1 a7 76 3d de 13 33 be d4 14 01 3d
       0.14000234 0.060218576 -0.17488047 0.031514004
0002a0 64 74 d5 3c b8 82 e2 3d 54 ac ab bb 49 a9 f7 3c
       0.026056476 0.11060089 -0.005239049 0.030232089
0002b0 b0 d2 09 3d 76 d5 d9 3c 82 75 85 bc f8 14 9a bb
       0.033648193 0.026591044 -0.016291384 -0.0047022067
0002c0 aa 96 9e be e9 61 a8 bc f3 a8 bc bd f4 8e b5 bd
       -0.30974323 -0.0205545 -0.09211912 -0.08865157
0002d0 87 6c b8 bd 7f 3d 93 3c 1b 97 01 3b 42 5a fd bd
       -0.09005075 0.01797366 0.0019773904 -0.12370731
0002e0 02 c1 5c 3d e8 05 15 3d 56 ae ac bd f4 7c 09 ba
       0.053895004 0.036382586 -0.084316894 -0.0005244755
0002f0 a6 e8 6f 3d a5 f5 c5 3c eb d3 f9 3c 0b 00 90 bd
       0.05857148 0.024164984 0.030496558 -0.07031258
000300 c5 8e d9 3d 9a ed 99 ba bd cc 9b 3d d2 37 8f 3d
       0.10622934 -0.0011743784 0.0760741 0.06993069
000310 fd e2 85 bd 93 77 83 bd 44 90 99 3d 90 a5 07 be
       -0.06537435 -0.06419291 0.074982196 -0.13246751
000320 bb 39 8a bd 05 32 29 3d d9 a5 6c 3d 09 25 4d bd
       -0.067492925 0.041307468 0.057775352 -0.050084148
000330 da 52 60 bd 34 01 c3 3d b5 39 89 bc 9e 30 1a bd
       -0.054766513 0.09521714 -0.01675115 -0.03764402
000340 71 35 f2 bd bd 80 3d 3d 16 66 10 3d c1 8d 22 bc
       -0.118265994 0.046265353 0.035253607 -0.009921492
000350 df ed 1c be 40 34 6b bd a8 14 90 bd 41 6a 85 bd
       -0.15325116 -0.057422876 -0.0703519 -0.06514407
000360 89 f6 48 bd 61 ae 42 bd ea d6 04 3e 03 40 59 bd
       -0.04906324 -0.047529582 0.12972608 -0.053039562
000370 4b 95 6d bc e8 9b 50 3e ae 9a 8c 3d 20 67 a9 bc
       -0.014500926 0.20371974 0.0686544 -0.020679057
000380 97 ff 32 3e 0f 3a 87 3d a6 2e 09 3d d0 6d ce 3b
       0.17480312 0.06602871 0.033491753 0.0062997118
000390 b1 4e f7 bd fd 20 3d bd dd 38 83 bd ca 8d 4c 3d
       -0.12075556 -0.04617404 -0.0640733 0.049939908
0003a0 0d 8a 03 3e 64 d4 2f 3c ec 72 d4 3d 18 7c 4a bd
       0.12845631 0.01073179 0.10373482 -0.04943475
0003b0 9f 00 fb 3b c8 34 a9 bb 19 f3 cf bc 7b 74 9b bd
       0.007659986 -0.0051637627 -0.025384473 -0.07590576
0003c0 41 9c 44 3e e2 89 c7 bc 80 b5 ac bd b4 ce 7a 3c
       0.19200231 -0.02435774 -0.08433056 0.015308071
0003d0 52 1a ad 3d 32 f8 87 3d a2 35 dc 3c b4 27 75 be
       0.08452286 0.066391364 0.026881043 -0.23940927
0003e0 f5 0f 2f 3c b7 45 bb 3d b3 44 c8 bc 0c 28 3d bc
       0.010684957 0.091441564 -0.02444682 -0.011545192
0003f0 de 62 e1 bc 74 8f 96 3d 3a de 86 3d c0 7b c8 3c
       -0.027512964 0.0735158 0.06585355 0.024473071

sequential_2/conv2d_2/Conv2D f4 [16, 8, 8, 1]
000000 a0 8b 04 be c0 9b 22 bd c4 66 27 bd a2 90 77 3c
       -0.12943888 -0.039699316 -0.04086949 0.015110167
000010 99 55 3b 3d f9 a2 01 3d 04 e8 10 3e 84 f2 64 3d
       0.04573593 0.031649563 0.14151007 0.055895343
000020 1f bf 57 be 13 6f 68 3c e0 6f 15 bd e9 ce 8b 3b
       -0.21069 0.014186638 -0.036483645 0.004266609
000030 54 df 4f 3d 32 76 45 3d 49 a7 e9 3d 7b ef 41 3d
       0.05075009 0.048208423 0.1140886 0.047347527
000040 9a 76 06 be 32 ec a6 bd bc 7c 83 3c 2c 68 a8 bd
       -0.1313118 -0.081505194 0.016050689 -0.08222994
000050 4a 47 1b bd 0b 33 fc bb a9 04 0d bd b4 b9 0e 3d
       -0.037909783 -0.0076965145 -0.034428272 0.03484507
000060 11 81 ea bd 59 d5 09 be 18 0d 31 be 71 10 5c 3d
       -0.11450399 -0.13460292 -0.17290151 0.053726617
000070 9e d6 2e bd e8 0d 11 3d a1 38 5a bb bc 3d 89 3d
       -0.042685144 0.035413653 -0.0033297914 0.06701228
000080 6c 0e c2 bd 3b 0d 96 bd 9a 5b ad bc 14 61 21 bc
       -0.09475407 -0.07326742 -0.021161843 -0.009849805
000090 a9 2a 8c bd 59 09 b1 3d 9f a0 8f bd 9a 56 a3 bb
       -0.06844074 0.08644361 -0.07013058 -0.004984689
0000a0 57 26 4a be ad 8d ff bd 01 36 f3 bd 64 69 ec bd
       -0.19741188 -0.124781944 -0.11875535 -0.11543539
0000b0 3c a7 6d 3d ba c7 2e 3d 44 e8 5f 3b 13 d3 03 3c
       0.058020815 0.042670943 0.003416554 0.0080459295
0000c0 95 71 94 bd 23 9c c4 bd 8d 3f cf bd 2d d7 00 be
       -0.072482266 -0.09600093 -0.10119543 -0.12582083
0000d0 74 f1 d3 3d f6 8b 5f bc 43 d4 bd 3d 6f 11 e0 3c
       0.10348788 -0.013644209 0.09269001 0.027352063
0000e0 be ab 04 3e 5e 83 19 bd 66 9b 26 bd 37 85 d5 bc
       0.1295614 -0.037478797 -0.040675543 -0.026064498
0000f0 63 63 30 3d f6 db 64 3d 9e 92 66 3d bd b6 87 bc
       0.043063533 0.055873834 0.05629217 -0.016566629
000100 22 f9 40 39 20 cd b3 bd 1f 87 a3 bc 00 52 c9 bd
       0.00018403356 -0.08779359 -0.019961892 -0.098300934
000110 01 b4 a1 bd e7 c1 b8 bd da 09 b7 3d 44 a4 a2 3d
       -0.07895661 -0.09021359 0.08937426 0.079414874
000120 29 c2 ed bd 59 11 39 bc 93 fa 0d bd 73 a2 6d bd
       -0.11609299 -0.01129564 -0.034662794 -0.05801625
000130 74 f7 09 bd c1 b6 24 3d ba 8a 99 3d 20 15 09 3d
       -0.033683255 0.04021335 0.07497163 0.033467412
000140 46 48 37 bd 94 c6 b4 3c 41 2f 23 3d d5 29 06 bd
       -0.04474666 0.022067346 0.039839987 -0.032754738
000150 5b eb 42 bd 46 6a b5 3d 93 e3 14 3d b3 da 63 3d
       -0.047587734 0.08858161 0.036349844 0.05562849
000160 b0 82 66 bd 7a 74 92 bd 3e 69 8b bd fb 7b 6b bc
       -0.056276977 -0.071511224 -0.06807183 -0.014372821
000170 37 ef 9b 3c d1 c3 36 bd ad d3 c6 3d ed e1 17 3d
       0.019034965 -0.04462034 0.09708343 0.037080694
000180 3a 42 6e 3c b8 4c db bb 0e 83 e4 bc 0d 95 01 bd
       0.014542157 -0.006692495 -0.027894523 -0.031636287
000190 02 2b 8a 3d bb 3a a5 3d ac 18 6d 3d 14 87 23 3d
       0.06746484 0.080678426 0.057884857 0.039923742
0001a0 15 80 16 bb 26 51 ba bd 28 88 bf bd a6 d3 02 bd
       -0.0022964526 -0.09097509 -0.093521416 -0.031940125
0001b0 ec 63 05 3d 7f 7d 9e 3d 28 a4 ff 3c 18 31 2b 3d
       0.032565996 0.0773878 0.031206205 0.041794866
0001c0 94 f1 e2 bd b9 ff 9b bd 36 c6 80 3d 46 4c eb 3c
       -0.110812336 -0.076171346 0.06287806 0.028722893
0001d0 f6 77 41 3d cb aa 53 3d 7c 20 05 3d 8c 3d a8 3c
       0.047233544 0.051676553 0.032501683 0.02053716
0001e0 7f d4 11 bd 02 56 bb bc 5c 42 50 bd 66 6b 41 bd
       -0.035603043 -0.02286816 -0.050844535 -0.047221564
0001f0 42 f0 97 3d 03 7f 6c 3d 77 ef 99 bb 02 70 da 3d
       0.074188724 0.057738315 -0.004697736 0.10665895
000200 e4 b7 16 3d ea 60 e4 bc 9c ec db bc c1 39 65 3d
       0.036796466 -0.027878243 -0.026846223 0.05596328
000210 51 8f a0 3c 23 96 43 3c 53 d9 38 3d 80 3d a6 3d
       0.019599589 0.011937651 0.04512913 0.08117199
000220 a2 59 72 bc 21 2f 8f bd 71 d0 31 bd 24 5a 47 3b
       -0.014791878 -0.06991411 -0.043411676 0.0030418718
000230 bd 6e 1e 3d e6 aa 8e 3c 81 33 41 3d 8b 84 c0 3d
       0.038679827 0.017415475 0.04716826 0.094002806
000240 2e bb c9 bb 39 1d 87 bd ae a8 7e 3c 2f f2 3c bd
       -0.0061563468 -0.06597371 0.015543146 -0.0461294
000250 ed 67 1a 3c 76 c4 8c bc ff dd 5c 3d 85 f7 53 3d
       0.009424192 -0.017183524 0.05392265 0.051749725
000260 ab 2e 0c bc 3f 7f 61 bd 60 0c 52 3d c9 84 a1 3d
       -0.008556048 -0.055052992 0.051281333 0.07886655
000270 66 2d ea 3c be b2 19 3c 5b c1 32 3d c5 31 02 3d
       0.0285861 0.009380994 0.04364143 0.031785745
000280 39 82 a7 3b 60 fc c6 3c 7f ab 57 3d f7 4c 5d 3d
       0.0051119593 0.024290264 0.052653786 0.054028478
000290 49 9e 7d 3d 84 7a 9c 3d 0f 39 9b 3d 4c e8 8d 3d
       0.06191853 0.076405555 0.075792424 0.06929073
0002a0 77 34 a3 bc a9 90 a8 bd 18 a3 6c bd cf 13 b9 bd
       -0.019922478 -0.08230717 -0.057772726 -0.09036981
0002b0 ca c4 9e bd f0 e6 48 3c 2a 3c 9e 3c 40 67 6d bd
       -0.07752378 0.012262091 0.019315798 -0.057959795
0002c0 27 64 b7 bd 37 43 1e bd 9c bc fc bd ce df 78 bd
       -0.089546494 -0.03863832 -0.12340662 -0.06076031
0002d0 63 33 ce bd b6 39 a8 3b 6b 99 8e b8 db 8a 7a 3d
       -0.10068395 0.005133833 -6.799664e-05 0.06116758
0002e0 2c 25 19 bd 3f 03 07 3c fb 1a e2 bd 5f c5 e0 bd
       -0.037388965 0.00824052 -0.11040302 -0.109751455
0002f0 4a 43 c7 3c c3 67 4c 3d 6e 58 a9 bd 4a 6c 84 3d
       0.024324078 0.049903642 -0.0826882 0.06465967
000300 22 da 42 3d 75 3f ac bd d1 7b 87 ba bc c1 ef 3c
       0.04757131 -0.08410541 -0.0010336583 0.029267184
000310 f9 d8 22 bd 18 37 33 bd 93 95 93 bd 86 17 a3 bd
       -0.039757702 -0.043753713 -0.072062634 -0.07963471
000320 c8 90 b2 3d 4b 94 96 bd d1 a5 20 3d 26 ae 55 3d
       0.08719021 -0.073525034 0.039220635 0.052168034
000330 0d 1a 01 bd 20 a6 04 bd 07 d5 9a bd 86 1c 11 bc
       -0.031518985 -0.03238499 -0.07560163 -0.008856898
000340 fd e9 a0 bd 6a e0 63 bd 05 5f 81 bc 52 b2 93 3d
       -0.0785713 -0.05563394 -0.01579238 0.07211746
000350 ef 6c dc bc ef a8 86 bd 71 a0 10 3d 7d 99 57 bd
       -0.026907412 -0.0657519 0.03530926 -0.052636612
000360 65 33 d1 bc 70 37 af bd 12 ac 98 bd ed de 49 bb
       -0.025537202 -0.08555496 -0.07454695 -0.003080304
000370 eb cb 7f bd 97 a5 80 3d aa d9 0c bd 44 cd 45 3d
       -0.06245033 0.06281584 -0.034387268 0.04829146
000380 8f 0d 9f bd 1d bf 92 3c fd 0a 54 bc a9 59 06 3d
       -0.07766258 0.017913396 -0.012942073 0.03280035
000390 62 cc 38 bb 69 ff b8 bd 62 11 9b bd ba be 91 3d
       -0.0028197994 -0.090330906 -0.07571675 0.07116456
0003a0 f0 a9 93 bd cb c8 b9 bd 77 6c 9c 3a b3 62 36 bd
       -0.072101474 -0.09071501 0.001193418 -0.04452772
0003b0 c5 33 bc 3b 97 c4 21 bd 29 8f 89 3c 89 2f 96 3c
       0.005743476 -0.039494123 0.016791897 0.018333213
0003c0 5e 20 24 3c 4f 5f 3b 3d 73 2a 92 3d c8 9b b1 3c
       0.010017483 0.04574519 0.07137003 0.021680728
0003d0 80 8a 29 3c 7f 71 0d 3d 09 b3 51 bd 3d c5 0a 3d
       0.010347962 0.034532066 -0.05119613 0.033879507
0003e0 4f 55 a3 bd 1f 51 3a bc db 86 8d bc 54 c8 3b 3d
       -0.07975256 -0.01137188 -0.017276218 0.045845345
0003f0 df 52 6f bd c1 26 21 bd 5c 70 84 bc e2 60 e1 bc
       -0.05842864 -0.0393436 -0.016166858 -0.027512018

dense_3/bias f4 [2]
000000 fa 12 2d 3b 34 13 2d bb
       0.0026409016 -0.002640915

dense_2/bias f4 [512]
000000 47 4f 92 3c 61 8c 33 3b 66 85 82 3c 4b ed cc bc
       0.017860068 0.0027396905 0.01593275 -0.025015494
000010 00 00 00 00 9e 78 2a bc ae 9d b5 bb 00 00 00 00
       0.0 -0.010404734 -0.0055424785 0.0
000020 df e0 9f 3c 05 52 03 3c 28 3f 82 3d 0f 47 9b bb
       0.019516407 0.00801516 0.06359702 -0.0047386955
000030 da af 70 3c 8b 20 cf bc 7b 1c 9a 3b 45 37 16 3c
       0.014690364 -0.025284072 0.004703102 0.009168451
000040 93 9a 6e bb f4 f3 ff 3c 9a dd 22 3d 02 b5 b1 3c
       -0.0036408051 0.031244256 0.039762117 0.021692757
000050 59 78 b1 bb 8c 0f b3 3c f9 57 0a 3b 45 27 88 3c
       -0.005415958 0.021858 0.0021109565 0.016620288
000060 b9 27 11 3c d9 db 2c ba bc b4 f7 bc b1 14 a4 bc
       0.008859568 -0.0006594039 -0.030237548 -0.020029398
000070 05 7d ef 3c dc d2 c8 bb a2 1a 7d bc cd 89 37 3c
       0.029234419 -0.006128652 -0.015448244 0.011202288
000080 59 06 26 ba 35 7a c8 3a 22 4c a3 3b fe 8a 79 3c
       -0.00063333433 0.001529521 0.004983441 0.015230892
000090 51 37 67 3d e9 74 a2 bb 40 60 b7 bb 17 0d 13 bb
       0.05644924 -0.0049577844 -0.0055961907 -0.0022438222
0000a0 63 4e ce 3b 34 c9 01 3d 07 50 99 3c d5 d3 14 bd
       0.0062959655 0.031686023 0.018714918 -0.03633483
0000b0 5c 01 06 3c ae ee 21 3d 40 af f0 bb 5e 67 8a bc
       0.008179035 0.039534263 -0.00734511 -0.016894992
0000c0 22 cd 42 3c c3 1c 6b 3b 3c 4b 0d bc de a5 f4 38
       0.011889728 0.0035875298 -0.008623894 0.00011665722
0000d0 ad 79 9b bc 66 f4 54 3a d9 5f 17 bc fe af 25 3b
       -0.018978918 0.00081235764 -0.00923916 0.0025281901
0000e0 f5 98 0a bc 31 e7 b1 3a fb 4f 03 3d f1 ea ad 3b
       -0.008459319 0.0013572929 0.032058697 0.005307548
0000f0 ca ea 26 3c 9a 0b 81 bb e3 c6 e1 b9 d2 d9 b9 bb
       0.010187814 -0.0039381506 -0.00043063526 -0.005671718
000100 4f 13 95 bc fb 26 e7 3c 5b 83 f7 bb be 0f 66 bb
       -0.018197684 0.02821683 -0.0075535006 -0.0035104598
000110 00 5d 3c ba a2 29 a1 bc 5c 28 17 3d 3f dd 11 3d
       -0.0007185489 -0.019673172 0.036903724 0.035611387
000120 d7 20 d2 3c 93 71 91 bc bc 82 90 bc 77 c5 0e bc
       0.025650425 -0.017754352 -0.017640464 -0.0087140715
000130 fc 42 2e bc 81 d3 7b 3c b3 d4 ee 3b c3 78 8b bc
       -0.0106360875 0.015370251 0.0072885393 -0.017025357
000140 42 2f 3f 3a f0 89 a0 bc 8e ce 18 3d 61 22 9d 3c
       0.0007293114 -0.019597024 0.03730636 0.019181432
000150 4d 29 f5 3a bb 91 5f b8 40 cc e2 3c 9c 85 ce 3c
       0.0018704325 -5.3303065e-05 0.027685285 0.025210194
000160 8a 08 b4 3c 64 98 b2 3a f6 9c 75 3c 56 3d 05 3c
       0.021976728 0.0013625738 0.014991036 0.008132299
000170 0d 8f 2a bb ad 6b d0 bb 30 82 64 3c c3 9f 8a bb
       -0.0026025206 -0.006360492 0.013947055 -0.004230471
000180 ee 78 e3 3c ba 58 37 3d cc 54 6a 3d e7 d7 62 3d
       0.027767625 0.04476235 0.057209775 0.05538168
000190 f0 08 d8 bc ee 67 1e 3a 80 c9 d7 bb 24 7c 3b bc
       -0.02637145 0.00060427084 -0.0065853 -0.011443172
0001a0 5c a6 c7 3c 8a c5 ff 3b 0f 49 01 bd 48 f7 f4 bb
       0.024371319 0.007805531 -0.031563815 -0.0074757673
0001b0 a2 64 e3 3c 5d eb 93 bc 29 62 90 b9 c0 44 2b 3c
       0.027757946 -0.018056566 -0.00027538955 0.010453403
0001c0 2e 9c 44 bc 00 00 00 00 4a e2 32 3d 89 f6 77 bb
       -0.012000127 0.0 0.043672837 -0.0037836155
0001d0 6b ae d1 bc b0 1b 77 bb 13 98 dc bc 8e b3 a5 ba
       -0.025595864 -0.0037705712 -0.026927983 -0.0012642012
0001e0 f2 e5 2f bb 00 41 81 3d f0 c7 c4 bb 60 95 3a 3c
       -0.002683994 0.06311226 -0.0060052797 0.011388153
0001f0 ef ab 08 bc ba df d7 bb 19 18 74 3c 4a 75 89 3c
       -0.008341773 -0.0065879496 0.014898323 0.01677956
000200 55 c3 a4 bc 89 e2 86 bc 87 ac f0 3c 3a 9a 35 3c
       -0.020112673 -0.016465442 0.029379142 0.011084134
000210 b5 cd 00 bc 97 9f ad bc df 9f 19 3d 8c 81 4b bc
       -0.007861544 -0.021194262 0.03750598 -0.012421023
000220 8b 92 64 bc 52 3d 53 bc 00 00 00 00 5b 3a ae bb
       -0.013950954 -0.012893038 0.0 -0.005317015
000230 09 97 50 3d 9c 33 81 3c 50 df 28 b9 c3 b6 b1 bc
       0.05092529 0.01577168 -0.00016104919 -0.021693593
000240 3c 8d 04 bd 00 00 00 00 62 ec ba bb f8 fe db 3b
       -0.032361254 0.0 -0.0057044486 0.0067137443
000250 44 68 fa 3c 7c 87 9f 3b ea 47 03 3c 1f 6c 0c 3d
       0.030567296 0.004868446 0.008012751 0.0342828
000260 69 3a 20 bb 3c 2d c7 3c 26 54 71 bb ec de 5e bc
       -0.0024448878 0.024313562 -0.0036823838 -0.013602953
000270 1e c6 68 3c 5e 1f 9f bc d3 6c 61 ba 00 00 00 00
       0.014207391 -0.019424137 -0.0008599285 0.0
000280 91 b0 43 3d 62 05 49 3c 00 00 00 00 c1 16 49 bc
       0.04777581 0.01226935 0.0 -0.012273491
000290 e6 5c 21 3d 74 0f 67 3b 7d 50 0c 3c 85 1b 23 3c
       0.039395235 0.0035257014 0.008564112 0.009955292
0002a0 90 ca eb 3b 9f 76 01 bc 00 d3 b1 3a 45 54 6e 3b
       0.007195778 -0.007901817 0.0013566911 0.0036366147
0002b0 eb 9f 48 3d 5d 44 8f 3c 75 79 ba bb 00 00 00 00
       0.048980635 0.017488653 -0.0056907483 0.0
0002c0 00 00 00 00 cd f7 1d 3d 00 00 00 00 31 4e b8 3a
       0.0 0.0385664 0.0 0.0014061389
0002d0 bc 74 ed 3c 64 38 f8 ba a4 6c 95 3b 35 31 aa bc
       0.028986327 -0.0018937704 0.00456007 -0.020775417
0002e0 53 91 ae bc 10 a2 51 bb 00 00 00 00 b7 9b 6a bc
       -0.02130953 -0.0031987466 0.0 -0.014319352
0002f0 50 c0 28 3c 8c 38 a1 b9 27 d5 9c 3c 6d 40 9a 3c
       0.010299757 -0.00030750444 0.019144608 0.018829549
000300 e8 66 ac 3b 9f 07 03 bc d0 a8 dc bb 2c 55 d5 3c
       0.005261291 -0.0079974225 -0.006733991 0.02604159
000310 cd 50 be 3c c9 a6 db 3b e0 6d 20 3d 9f eb 88 3c
       0.023231888 0.006703232 0.039167285 0.016713915
000320 05 3b a6 bb 76 17 41 bc 00 00 00 00 18 04 9d bc
       -0.0050729536 -0.011785379 0.0 -0.019166991
000330 5a d3 28 3d fc c7 7a 3c 59 63 0b bd d9 f4 a4 3c
       0.041217186 0.015306469 -0.034030292 0.020136284
000340 d5 34 4d 3c a4 e0 3e ba f5 88 8d 3c 00 00 00 00
       0.012524803 -0.0007281399 0.01727722 0.0
000350 4b 44 d6 3c 64 63 82 bb 35 25 64 bb f9 d6 14 bc
       0.026155612 -0.0039791334 -0.0034812216 -0.009084457
000360 96 cc 10 3d f7 0a 76 3c db 03 b2 3b d9 6c 87 bc
       0.03535136 0.015017263 0.0054325885 -0.016531395
000370 36 38 3a bb 3c 15 b4 bc f8 a6 e0 bb aa 50 98 3b
       -0.0028414852 -0.021982782 -0.0068558417 0.004648288
000380 14 a9 35 3c 0f f3 0d ba 6f f8 2c bd b5 80 d5 3c
       0.011087675 -0.00054149417 -0.042229112 0.026062349
000390 70 ff 16 bc c4 2c a4 3b 4e 73 2f 3c 4b 01 ac bb
       -0.0092161745 0.0050102193 0.010708643 -0.0052491776
0003a0 76 0a 18 bc 7a 17 d2 3c b3 b7 52 3d 84 fd b2 3c
       -0.009279838 0.02564596 0.05144472 0.021849401
0003b0 dc b9 98 bb 18 74 fc bb 4d 12 04 bc bd bc 01 bd
       -0.004660828 -0.007704269 -0.008061004 -0.031674135
0003c0 d0 e5 49 bb f9 a2 a3 3a fc 97 2f 3a 57 07 e1 3c
       -0.0030807145 0.0012484483 0.00066983677 0.02746932
0003d0 58 ac d9 3c 92 4c b3 bb 85 18 a1 bb 04 a8 28 bc
       0.026571438 -0.0054717744 -0.004916253 -0.010293964
0003e0 1a 73 80 bc 13 0a a7 bc 69 8b f0 bc 4b 2d 96 ba
       -0.015679885 -0.020390546 -0.029363351 -0.001145759
0003f0 57 fe b9 bb 57 e2 4b bc b1 fe cf bb 0f 3d a0 3c
       -0.0056760716 -0.0124441 -0.0063475003 0.019560365

sequential_2/dense_2/MatMul f4 [512, 32]
000000 69 0f 9c bc 7d 30 5f 3c b7 f2 38 be 5b 8e 6b 3d
       -0.019050317 0.0136224 -0.18061338 0.057508808
000010 b4 1c ba 3c 73 5d d1 bd fb d5 7e bd 8e 3c 67 bd
       0.022718765 -0.10222902 -0.062215786 -0.056454234
000020 6d 1f 62 3c a3 90 73 3d 30 7a 44 bc 11 d1 7d 3d
       0.013801438 0.05946411 -0.011992022 0.06196696
000030 58 8e 3b bd 15 02 64 bd 9b 9f 8a 3e f9 ef e0 3b
       -0.045790046 -0.055666048 0.27074894 0.0068645445
000040 b8 d4 57 bc 35 29 b4 3d c8 11 ea bd e6 0b b8 bd
       -0.013173275 0.08796922 -0.11429173 -0.089866444
000050 65 1a c8 3d e3 f0 1a 3d df 78 83 3c 58 09 3b bd
       0.09770659 0.037827384 0.016048847 -0.045663208
000060 1d a3 7a 3d b5 40 fe 3d c3 77 d8 3c f0 37 b9 3d
       0.061190713 0.12414686 0.026424294 0.09043872
000070 49 8e bf 3c b6 e2 a8 3d 50 7f 2c bd 29 9a 2e 3d
       0.023383277 0.08246367 -0.042113602 0.042627487
000080 7e 59 2a bd bf c1 ad bd f2 08 ac bd 60 bc 02 3c
       -0.041589253 -0.0848422 -0.08400144 0.007979482
000090 61 a2 84 bd 7b 60 5a bc 2c fe 42 bd 39 d7 07 3d
       -0.06476284 -0.013328667 -0.04760568 0.033164237
0000a0 7d e6 0f bc 93 70 84 3d a6 dc 34 3d 65 69 d1 3d
       -0.00878298 0.06466784 0.04415574 0.102251805
0000b0 46 95 6e 3d 8a 70 0e 3d 9f f4 57 3d c4 3a a7 bd
       0.058247827 0.034775294 0.052723523 -0.081655055
0000c0 76 fa 8c bd f5 3b 5b bc fe d0 8d bc 11 dd 32 3d
       -0.06883709 -0.013380994 -0.01731157 0.043667857
0000d0 18 c6 b3 bd ae 1a a6 bd 3f 4d 2d bd 52 dc 96 3d
       -0.08778018 -0.081105575 -0.042309996 0.073662415
0000e0 0e 46 81 bd 8e 47 b5 3d 73 cf b1 3d e0 f8 af bd
       -0.0631219 0.088515386 0.08682146 -0.08592391
0000f0 69 81 83 bd 4c e9 37 3d 38 0b 79 bd d4 7c b1 3d
       -0.064211674 0.044900224 -0.060801715 0.08666387
000100 be ba b9 3d f1 ab a1 bd 7c 6b e1 3d 41 ab 0a bd
       0.09068821 -0.07894123 0.11006829 -0.033854727
000110 24 01 02 3e 7c 7d 26 3e 37 a7 35 3d e0 1f bf 3d
       0.12695748 0.16258806 0.04434892 0.093322515
000120 48 9f db 3c 8d e4 65 bc 62 13 b2 bd 21 b3 be 3d
       0.02680935 -0.0140315415 -0.08695103 0.0931151
000130 c5 16 83 3d 77 57 b4 bc 38 8a 70 be 09 e5 83 bc
       0.06400827 -0.022014363 -0.23490226 -0.016100423
000140 82 14 5d 3d bf fc bf bc d6 5e 32 3d f6 31 af 3d
       0.053974636 -0.023435948 0.043547474 0.08554451
000150 5a 1e ed bb 23 dc 9b 3d 57 19 ad bc f1 0c 8a 3d
       -0.007236284 0.07610347 -0.021130247 0.067407496
000160 bd 1f b9 3b 16 eb 85 bd 19 9f a3 3d 1b 0a 27 3d
       0.0056495355 -0.0653898 0.0798933 0.04078112
000170 87 c6 80 3d 2c 05 01 be 4a 64 05 bb ff 7c 45 3c
       0.06287866 -0.12599629 -0.0020353966 0.012053727
000180 b7 42 4b 3c 7b d0 f7 3b cf ca b7 bd f1 c3 43 bd
       0.012406043 0.0075626946 -0.089742295 -0.047794286
000190 38 d9 2d 3c c5 46 5e bd b7 93 7e 3c d7 2a ca bd
       0.010610871 -0.05426671 0.015538148 -0.09871452
0001a0 84 a1 8c bd 90 f9 c3 bc ae a8 f5 3b c5 ef d0 bd
       -0.06866744 -0.023922712 0.007496915 -0.102019824
0001b0 a0 19 a2 bd f7 5e c5 bd 24 e2 95 bd 3f dc c2 bd
       -0.07915044 -0.09637254 -0.073185235 -0.09514665
0001c0 74 c5 98 bd 53 cb 9a 3d 70 09 a7 bd 3c be 53 3c
       -0.07459536 0.07558312 -0.08156097 0.012923773
0001d0 96 e7 08 bd 8b 17 d7 bd cb 9c 95 bc e1 10 19 3d
       -0.033423983 -0.10502537 -0.018263241 0.037369613
0001e0 f8 29 67 ba 0a fe 6b 3d e3 76 58 3d 33 d7 96 bd
       -0.00088182045 0.057615317 0.052847754 -0.07365265
0001f0 ef 83 cb 3c b0 f3 3b bc 0f 1d 9d bd 4b c9 ad bd
       0.024843184 -0.011471674 -0.07671558 -0.08485659
000200 55 55 d0 3d 8a ba 1c bd 50 ec 81 bd d0 75 a7 bb
       0.10172526 -0.038263835 -0.06343901 -0.00511048
000210 1c c1 17 bd a2 d8 c2 bd 80 e6 e8 3a 3e a5 03 3d
       -0.037049398 -0.09513976 0.001776889 0.03214001
000220 74 b4 9d bd d2 d6 4d 3d ce 4d 0d bd e0 b1 46 bb
       -0.07700434 0.050253697 -0.03449803 -0.0030318424
000230 53 27 a2 bd 7c 5f 89 3c 70 27 87 bc a0 2a ea bc
       -0.07917657 0.016769163 -0.016498297 -0.028584778
000240 96 00 55 3d 56 17 bf bd 30 ac b6 bb b4 15 b4 3c
       0.052002512 -0.09330623 -0.0055747256 0.021983005
000250 90 b8 83 bd 18 80 18 bc 96 65 68 bd 5e fc 54 3d
       -0.06431687 -0.009307884 -0.056737505 0.05199849
000260 8f b0 c5 bd 62 cb 27 3d e7 af a6 3d ea dd 43 bd
       -0.096528165 0.040965445 0.081390195 -0.047819056
000270 2c 28 ba bd 72 34 1d 3d ac cd f7 3c 62 90 0b bd
       -0.090896934 0.038380094 0.03024944 -0.03407324
000280 71 9c ed bd f7 aa 1a 3d 75 8a b6 bc f6 2b b4 3d
       -0.116021045 0.0377607 -0.022282818 0.087974474
000290 da aa 96 bd db 8a 26 3c 36 dd bc 3d 65 ff 87 bd
       -0.07356806 0.010164942 0.0922188 -0.066405095
0002a0 74 11 a8 bd bf 48 8a bd 48 75 a5 3d 0d 48 11 3d
       -0.08206454 -0.067521565 0.0807901 0.035469104
0002b0 88 ef 86 bd 29 c3 90 3d 81 86 80 3e a0 18 12 bd
       -0.06588656 0.07068474 0.25102618 -0.035668015
0002c0 fe 61 50 bc 5c b5 2b bd 6f 86 48 bd 70 1f 1a 3c
       -0.012718676 -0.041921005 -0.04895633 0.009406909
0002d0 7d 97 b1 3d 6b 4c 08 3d 2a 55 a8 3d 8d b0 db bc
       0.08671472 0.033276003 0.08219369 -0.026817584
0002e0 08 74 be bd f1 9e 24 3e 47 c7 9d 3d f0 1e ca 3d
       -0.09299475 0.16076256 0.07704025 0.09869182
0002f0 04 35 82 bc ca 3e db bb ee b8 65 3d 78 be b8 3d
       -0.01589442 -0.0066908346 0.056084566 0.09020704
000300 ca 31 5a 3d e1 af a9 3d e0 41 ab bd 42 c2 13 bd
       0.05327014 0.08285499 -0.08362174 -0.03607393
000310 5e 9c c6 3d 1f ea b0 bc 3e ec 4b 3d 2b ba 83 bc
       0.096977934 -0.021596013 0.049785845 -0.016079983
000320 7c 2f b7 3d 6e 6b c1 bd 6c a2 e3 bc 52 71 8b 3d
       0.08944604 -0.09444319 -0.02778741 0.068087235
000330 3e 79 e1 bc 86 0d a4 3d 06 8a 4a 3d 97 d5 0d 3c
       -0.027523633 0.08010392 0.049448036 0.008656881
000340 47 9b 35 bd d9 79 5a 3c a6 f6 b2 bd 24 e4 85 bd
       -0.044337537 0.013334715 -0.08738451 -0.06537655
000350 15 78 21 bd ef af a6 bd 08 bb d5 bd f6 7f 10 bd
       -0.03942116 -0.081390254 -0.10436064 -0.035278283
000360 3d eb a4 3d 86 fd c9 3d 8b 1d 5e bd 4d 8e b0 bd
       0.08052681 0.09862809 -0.054227393 -0.08620892
000370 78 20 5a bd 29 1a cd bd 5d fd e1 bd af 4a 3b bd
       -0.05325362 -0.10014755 -0.11034653 -0.04572552
000380 ca 34 11 3d ec cd 0b bd 79 75 7f bd 66 ec 64 bd
       0.035450734 -0.03413193 -0.06236789 -0.05588951
000390 34 d1 b4 bd c0 ea e8 3b eb ee 8b 3d e0 d0 60 bc
       -0.08828965 0.0071080625 0.06832679 -0.013721675
0003a0 d1 6c d1 3d be ff 0a bd bc b8 a5 bd 48 ad 35 bc
       0.10225833 -0.0339353 -0.08091876 -0.011088677
0003b0 35 8f 87 3d 76 c1 24 bd c2 07 b9 bd 0c 51 4f bd
       0.066191114 -0.04022356 -0.09034683 -0.0506144
0003c0 e8 92 30 bd 00 c8 11 bd c0 32 79 bb d9 9d ac bd
       -0.04310885 -0.035591125 -0.0038024634 -0.084285446
0003d0 4d d7 85 bd 72 97 3e bd 88 f9 c3 bd ae 85 0f bd
       -0.06535206 -0.04653115 -0.09569079 -0.035039596
0003e0 14 9d 4b bd be be b1 bd d6 b9 38 3d cc ca be 3c
       -0.04971035 -0.08678959 0.045099102 0.02329006
0003f0 e2 64 9d bd 66 7b 8d bd ef 0c a0 3d fe f6 1b 3d
       -0.076852575 -0.06908302 0.07814967 0.038077347

sequential_2/dense_3/MatMul f4 [2, 512]
000000 91 77 26 bd 65 33 b3 3d 58 40 58 bd 40 a4 88 3d
       -0.04064137 0.08750037 -0.052795738 0.06671953
000010 70 0e cb 3d 9f a2 68 bd 69 35 6d 3d 58 97 14 bc
       0.09914863 -0.056795713 0.057912264 -0.009069286
000020 f1 04 46 be 4c b3 84 3c 8b 4f a3 3d 0a 49 a2 3d
       -0.19337822 0.016198777 0.07974156 0.07924087
000030 6e 71 0e 3d d6 4c 1c bd c4 e3 65 3c f7 3a c7 3d
       0.034776144 -0.038159214 0.014031354 0.097280435
000040 54 77 d0 3d 95 e7 5d bd 1e 45 09 be c5 1b b6 3b
       0.1017901 -0.054175932 -0.13405272 0.0055575096
000050 72 5f a0 3d 90 74 1e 3e 1c 51 d1 3b 36 7b d1 3c
       0.07830705 0.15474153 0.006387843 0.025571447
000060 0f 30 2c 3d 83 4e 1b 3d 42 31 43 bd 4b cf 8a bd
       0.04203802 0.03791667 -0.047654398 -0.06777819
000070 b1 01 da 3d f1 ab 18 bc f9 03 0e bb fe 59 50 bd
       0.10644854 -0.009318338 -0.0021669848 -0.050867073
000080 b6 07 e2 bd a4 4f c2 3c a4 30 1a bd 71 62 4b 3d
       -0.11036627 0.023719616 -0.037644044 0.049654428
000090 de cc f6 3c 9b 82 c1 bd ec ac f3 bd f1 55 33 3d
       0.030126985 -0.09448739 -0.118982166 0.043783132
0000a0 9d 4a ec bd 46 a5 19 3e 7a 28 9c 3d d7 79 ee bb
       -0.11537669 0.15004453 0.07624908 -0.007277708
0000b0 9a 9f 38 3c c3 30 93 3d c0 1f ad 3d 1c e4 65 bd
       0.011268521 0.07187035 0.084533215 -0.056125745
0000c0 b2 52 00 bd 6d 30 d0 bd a6 43 19 bd d4 e4 10 be
       -0.031328864 -0.101654865 -0.03741803 -0.14149791
0000d0 0b 19 a2 bd 8c df d3 bd c0 e6 dd 3b e3 3f e0 3d
       -0.07914933 -0.103453726 0.0067718923 0.109496854
0000e0 86 87 8b bd 73 40 a7 3d ba 36 a8 3d 20 21 94 3c
       -0.068129584 0.081665896 0.08213563 0.018082201
0000f0 9a 0c c3 bd 18 57 00 bd bc 04 31 bd 3a cb cc bd
       -0.09523888 -0.03133306 -0.043217406 -0.099997
000100 80 bb b6 3d db 7d 04 be 3f ac 67 bd 0b 44 5b 3d
       0.089224815 -0.12938635 -0.05656075 0.053531688
000110 9b a2 a4 bd 1e d0 73 bd f8 c7 9b bd 5a f9 90 3d
       -0.08038827 -0.059524648 -0.076065004 0.0707881
000120 57 37 0f 3e 23 ef 1a bc 3e f1 ef bd 87 f5 03 be
       0.13985954 -0.009456429 -0.11715935 -0.1288663
000130 a7 20 c7 3d c2 e1 54 3d 8e bb 4a bd fb 9d 6b 3d
       0.09723025 0.051973112 -0.049495272 0.05752371
000140 06 a7 a3 3d 79 a7 ac bd 30 be 2e be fe 37 74 bc
       0.079908416 -0.084303804 -0.17064738 -0.014905928
000150 be 56 b5 3c 7f a8 01 be 51 57 58 3e ef e0 df bd
       0.022136088 -0.12661932 0.21127059 -0.109315746
000160 2b 90 50 be 47 ab 69 bd ea ea ca bd da 31 73 3d
       -0.20367496 -0.05704811 -0.099080876 0.059373714
000170 16 77 11 3d 15 71 34 be 4d 85 df 3d d9 73 06 be
       0.03551396 -0.17621262 0.10914097 -0.1313013
000180 f7 2c 95 3e 89 fb 2a 3d 52 c5 82 be 64 fe 24 be
       0.29135868 0.04174379 -0.25541168 -0.16112667
000190 99 40 97 3d 51 09 e2 bd b6 cf 36 bd ed 47 52 bc
       0.07385368 -0.11036933 -0.044631682 -0.012834531
0001a0 a8 22 b7 3d a0 db 2e be c5 23 b0 3c c5 79 57 3b
       0.08942157 -0.17075968 0.021501431 0.0032878977
0001b0 f1 11 29 3e 86 3a 99 3c 01 e3 6c bb 19 54 43 3d
       0.1651075 0.018704664 -0.0036146047 0.047687624
0001c0 28 8e c2 bd b6 9d a9 bd 47 50 99 bd 5a 15 95 bd
       -0.094997704 -0.08282034 -0.07486015 -0.07279463
0001d0 e7 41 ba bc f0 0a 6e 3d 59 54 94 3d f9 14 21 bc
       -0.022736503 0.0581159 0.072426505 -0.00983166
0001e0 14 37 88 bb 29 57 36 be c5 aa 9f 3d ec 64 00 3e
       -0.0041569564 -0.17806686 0.077962436 0.12538499
0001f0 b7 a7 07 3d 46 f1 6c bc 93 46 89 3d 38 a4 d8 bd
       0.03311893 -0.014461821 0.06702914 -0.10578197
000200 5c 83 84 bd 0f ec 9b bd 6f ad 4f be c2 df ff bc
       -0.06470367 -0.07613384 -0.20281003 -0.031234626
000210 8f 6d de 3d df 7c f8 3b 86 cf e1 bc d0 69 0b be
       0.108607404 0.007583245 -0.027564775 -0.13614583
000220 a5 6c 84 bd 85 72 e6 3c 30 46 a8 bb 65 11 a2 bd
       -0.06466035 0.028130779 -0.00513532 -0.07913474
000230 75 e7 36 3d 84 b6 76 3d e8 d2 c8 3c 29 0f 2b 3d
       0.04465433 0.060232654 0.02451463 0.041762505
000240 98 35 d8 bd 10 62 67 bd 71 1e 95 3d 1b 68 c3 bd
       -0.10557097 -0.056490004 0.07281197 -0.09541341
000250 ad 65 bf bd 08 21 45 be b5 32 d9 bd 24 ce 13 3e
       -0.09345565 -0.19250882 -0.10605375 0.14434105
000260 93 79 c2 bd 2b 51 76 be 87 5b 01 3d a2 9f 50 3d
       -0.09495845 -0.240544 0.031581428 0.050933488
000270 07 c0 08 3e 94 71 23 3c 94 6e 43 bd 3a c7 dc bd
       0.13354503 0.00997581 -0.047712877 -0.10780187
000280 9c e0 e7 3d 75 76 8f 3d ac 2e 99 bc 81 77 a1 3d
       0.11322138 0.07005016 -0.018699013 0.07884122
000290 a2 d2 16 3d 87 8a e1 3d 55 02 00 be 8d b8 8e bd
       0.03682197 0.1101275 -0.1250089 -0.06968794
0002a0 9c a6 d0 3d b7 17 cf bd c6 10 02 3d 4b e8 68 3b
       0.10188028 -0.10111945 0.031754278 0.0035538848
0002b0 89 56 0d be a0 4c f4 3d 08 8e e9 bd c1 64 a4 bd
       -0.13802542 0.119286776 -0.114040434 -0.0802703
0002c0 88 2a ce 3c 5c c9 47 bd bc 8e 1e 3d aa db d1 3d
       0.025166765 -0.048776016 0.03871034 0.10246976
0002d0 ff 29 22 3e 6f 02 6d 3d 98 a6 db bd 5d c5 39 3d
       0.15836333 0.05786365 -0.107251346 0.045354236
0002e0 0d 8b fa 3c 17 5c a4 bd 07 cf 46 bd e2 12 08 bd
       0.030583883 -0.08025377 -0.04853728 -0.033221133
0002f0 09 1e 9c bd 88 fb 01 3e a2 ca 92 3d c7 07 84 3c
       -0.07622916 0.12693608 0.071675554 0.01611699
000300 52 ce a7 3d bc 5b 0e be 2e 2c ed bd 0d 3a af bb
       0.08193649 -0.13902181 -0.11580692 -0.0053474964
000310 81 81 06 be 95 90 16 39 1c 35 3f 3e 7d e2 1f 3c
       -0.1313534 0.00014358976 0.18672603 0.009758589
000320 88 9a 2b be 7b 70 bc bc b5 ad bd bd c7 c0 ac bd
       -0.16758168 -0.023002854 -0.092616476 -0.08435207
000330 57 bc 85 bd e5 9d eb 3d 4f a5 a9 bc 04 9a e1 bc
       -0.065300636 0.11504725 -0.020708708 -0.02753926
000340 83 bc 97 bc 74 58 88 3d 0c 29 34 3e 1c d9 c2 bc
       -0.018522507 0.06657496 0.17593783 -0.023785166
000350 b4 13 05 3e 20 74 6b 3b f3 c5 05 be 7e 93 fb 3c
       0.12995797 0.003592737 -0.13063793 0.030709978
000360 1d 5e de bd 2c 10 aa bd 4b f7 7a 3d 24 10 bd bd
       -0.108577944 -0.08303866 0.061270993 -0.09231594
000370 58 c0 da bd 51 87 9e 3b f8 c5 d2 bd 39 de 05 be
       -0.10681218 0.0048379083 -0.10291666 -0.13073052
000380 fb 60 8e 3c ea b3 12 be a4 5a 3b 3c d3 b1 2e be
       0.017380228 -0.14326444 0.011435185 -0.17060022
000390 0d 85 c9 3d 94 33 b3 bd 2a b2 f5 3c 8c e6 15 bd
       0.098398305 -0.08750072 0.029992182 -0.03659682
0003a0 43 20 75 bd 57 f9 50 3d c7 a1 f2 3d 4e d7 29 3d
       -0.05984522 0.05101904 0.11847263 0.041465096
0003b0 1c 28 0c 3d c8 20 da 3d 4b 74 e7 bc 68 5a 2c 3d
       0.03421794 0.10650784 -0.028253695 0.042078406
0003c0 0f 4c 9e 3c 33 55 93 bc a2 d5 51 3c b6 98 04 3d
       0.019323377 -0.017984962 0.012807282 0.0323722
0003d0 d5 37 fc 3d 4c e7 c0 bd 5b 48 85 3d c2 dd 94 3d
       0.123153366 -0.094191164 0.06507941 0.072688594
0003e0 01 ed 11 bd 9b ab eb bc 1b 65 2c 3d 99 f5 75 bb
       -0.035626415 -0.028768351 0.04208861 -0.003753042
0003f0 4a d7 b4 3d 1e 6a 64 bb 2b ed 9a 3d 9e ff e4 3b
       0.08830126 -0.003485329 0.075647675 0.0069884798
